_________________________________________________________________
Layer (type)                 Output Shape              Param #   
=================================================================
embedding_12 (Embedding)     (None, 26, 32)            2273824   
_________________________________________________________________
flatten_12 (Flatten)         (None, 832)               0         
_________________________________________________________________
dense_20 (Dense)             (None, 625)               520625    
_________________________________________________________________
dropout_9 (Dropout)          (None, 625)               0         
_________________________________________________________________
dense_21 (Dense)             (None, 300)               187800    
_________________________________________________________________
dropout_10 (Dropout)         (None, 300)               0         
_________________________________________________________________
dense_22 (Dense)             (None, 32)                9632      
=================================================================
Total params: 2,991,881
Trainable params: 2,991,881
Non-trainable params: 0
_________________________________________________________________
None
Epoch 1/100
207572/207572 [==============================] - 65s 312us/step - loss: 2.7822 - acc: 0.2235
Epoch 2/100
207572/207572 [==============================] - 64s 310us/step - loss: 1.9501 - acc: 0.4571
…
