"""
Added conv layer, otherwise same as last in trainOnTitles.txt
trainOnTitles_CNN_1
"""
_________________________________________________________________
Layer (type)                 Output Shape              Param #   
=================================================================
embedding_39 (Embedding)     (None, 26, 32)            2273824   
_________________________________________________________________
dropout_41 (Dropout)         (None, 26, 32)            0         
_________________________________________________________________
conv1d_3 (Conv1D)            (None, 11, 128)           20608     
_________________________________________________________________
max_pooling1d_3 (MaxPooling1 (None, 1, 128)            0         
_________________________________________________________________
flatten_37 (Flatten)         (None, 128)               0         
_________________________________________________________________
dense_67 (Dense)             (None, 32)                4128      
=================================================================
Total params: 2,298,560
Trainable params: 2,298,560
Non-trainable params: 0
_________________________________________________________________
None
Train on 186814 samples, validate on 20758 samples
Epoch 1/15
186814/186814 [==============================] - 67s 357us/step - loss: 2.1713 - acc: 0.4083 - val_loss: 1.6011 - val_acc: 0.5690
…
