…
186814/186814 [==============================] - 7s 40us/step - loss: 1.5729 - acc: 0.5571 - top_k_categorical_accuracy: 0.8474 - val_loss: 1.9640 - val_acc: 0.4905 - val_top_k_categorical_accuracy: 0.7998
Using GloVe embeddings
MLP: False
CNN: True
Trainable: False
Loaded 400000 word vectors.
20429 words not found in GloVe dataset out of 75094 training words: 27.204570271925853 %
_________________________________________________________________
Layer (type)                 Output Shape              Param #   
=================================================================
embedding_2 (Embedding)      (None, 26, 100)           7509400   
_________________________________________________________________
conv1d_1 (Conv1D)            (None, 24, 512)           154112    
_________________________________________________________________
max_pooling1d_1 (MaxPooling1 (None, 1, 512)            0         
_________________________________________________________________
dropout_1 (Dropout)          (None, 1, 512)            0         
_________________________________________________________________
dense_2 (Dense)              (None, 1, 512)            262656    
_________________________________________________________________
flatten_2 (Flatten)          (None, 512)               0         
_________________________________________________________________
dropout_2 (Dropout)          (None, 512)               0         
_________________________________________________________________
dense_3 (Dense)              (None, 32)                16416     
=================================================================
Total params: 7,942,584
Trainable params: 433,184
Non-trainable params: 7,509,400
_________________________________________________________________
None
Train on 186814 samples, validate on 20758 samples
Epoch 1/25
186814/186814 [==============================] - 27s 142us/step - loss: 1.8518 - acc: 0.4872 - top_k_categorical_accuracy: 0.7881 - val_loss: 1.5111 - val_acc: 0.5704 - val_top_k_categorical_accuracy: 0.8575
…
186814/186814 [==============================] - 25s 135us/step - loss: 1.1007 - acc: 0.6678 - top_k_categorical_accuracy: 0.9196 - val_loss: 1.3541 - val_acc: 0.6292 - val_top_k_categorical_accuracy: 0.8799
Using GloVe embeddings
MLP: True
CNN: False
Trainable: False
Loaded 400000 word vectors.
20429 words not found in GloVe dataset out of 75094 training words: 27.204570271925853 %
_________________________________________________________________
Layer (type)                 Output Shape              Param #   
=================================================================
embedding_3 (Embedding)      (None, 26, 100)           7509400   
_________________________________________________________________
flatten_3 (Flatten)          (None, 2600)              0         
_________________________________________________________________
dense_4 (Dense)              (None, 1024)              2663424   
_________________________________________________________________
dropout_3 (Dropout)          (None, 1024)              0         
_________________________________________________________________
dense_5 (Dense)              (None, 512)               524800    
_________________________________________________________________
dropout_4 (Dropout)          (None, 512)               0         
_________________________________________________________________
dense_6 (Dense)              (None, 32)                16416     
=================================================================
Total params: 10,714,040
Trainable params: 3,204,640
Non-trainable params: 7,509,400
_________________________________________________________________
None
Train on 186814 samples, validate on 20758 samples
Epoch 1/25
186814/186814 [==============================] - 16s 85us/step - loss: 2.1389 - acc: 0.4031 - top_k_categorical_accuracy: 0.7264 - val_loss: 1.8151 - val_acc: 0.4938 - val_top_k_categorical_accuracy: 0.8120
…
186814/186814 [==============================] - 20s 107us/step - loss: 0.4479 - acc: 0.8624 - top_k_categorical_accuracy: 0.9822 - val_loss: 1.6442 - val_acc: 0.6404 - val_top_k_categorical_accuracy: 0.8821
Using GloVe embeddings
MLP: False
CNN: True
Trainable: True
Loaded 400000 word vectors.
20429 words not found in GloVe dataset out of 75094 training words: 27.204570271925853 %
_________________________________________________________________
Layer (type)                 Output Shape              Param #   
=================================================================
embedding_5 (Embedding)      (None, 26, 100)           7509400   
_________________________________________________________________
dropout_6 (Dropout)          (None, 26, 100)           0         
_________________________________________________________________
conv1d_2 (Conv1D)            (None, 24, 512)           154112    
_________________________________________________________________
max_pooling1d_2 (MaxPooling1 (None, 1, 512)            0         
_________________________________________________________________
dropout_7 (Dropout)          (None, 1, 512)            0         
_________________________________________________________________
dense_8 (Dense)              (None, 1, 512)            262656    
_________________________________________________________________
flatten_5 (Flatten)          (None, 512)               0         
_________________________________________________________________
dropout_8 (Dropout)          (None, 512)               0         
_________________________________________________________________
dense_9 (Dense)              (None, 32)                16416     
=================================================================
Total params: 7,942,584
Trainable params: 7,942,584
Non-trainable params: 0
_________________________________________________________________
None
Train on 186814 samples, validate on 20758 samples
Epoch 1/25
186814/186814 [==============================] - 41s 217us/step - loss: 2.0992 - acc: 0.4212 - top_k_categorical_accuracy: 0.7291 - val_loss: 1.5853 - val_acc: 0.5699 - val_top_k_categorical_accuracy: 0.8488
…
186814/186814 [==============================] - 40s 212us/step - loss: 0.9256 - acc: 0.7314 - top_k_categorical_accuracy: 0.9381 - val_loss: 1.4224 - val_acc: 0.6573 - val_top_k_categorical_accuracy: 0.8886
Using GloVe embeddings
MLP: True
CNN: False
Trainable: True
Loaded 400000 word vectors.
20429 words not found in GloVe dataset out of 75094 training words: 27.204570271925853 %
_________________________________________________________________
Layer (type)                 Output Shape              Param #   
=================================================================
embedding_6 (Embedding)      (None, 26, 100)           7509400   
_________________________________________________________________
flatten_6 (Flatten)          (None, 2600)              0         
_________________________________________________________________
dropout_9 (Dropout)          (None, 2600)              0         
_________________________________________________________________
dense_10 (Dense)             (None, 1024)              2663424   
_________________________________________________________________
dropout_10 (Dropout)         (None, 1024)              0         
_________________________________________________________________
dense_11 (Dense)             (None, 512)               524800    
_________________________________________________________________
dropout_11 (Dropout)         (None, 512)               0         
_________________________________________________________________
dense_12 (Dense)             (None, 32)                16416     
=================================================================
Total params: 10,714,040
Trainable params: 10,714,040
Non-trainable params: 0
_________________________________________________________________
None
Train on 186814 samples, validate on 20758 samples
Epoch 1/25
186814/186814 [==============================] - 30s 158us/step - loss: 2.3013 - acc: 0.3615 - top_k_categorical_accuracy: 0.6794 - val_loss: 1.8282 - val_acc: 0.5111 - val_top_k_categorical_accuracy: 0.8235
…
